checkpoint_actor.pth (torch_old, 52455 bytes, 6 tensors)

fc1.weight f4 [128, 33]
0	0xbeb12d21	-0.34604743
1	0x3eab7bef	0.3349299
2	0xbe82d59c	-0.25553596
3	0x3d006801	0.031349186
4	0xbe2ebfcd	-0.17065354
5	0xbebf84e6	-0.3740608
6	0xbe9ac3f6	-0.3022763
7	0xbc338341	-0.010956586
8	0x3c516152	0.012779551
9	0x3d47aa8f	0.04874664
10	0x3d155a73	0.036463212
11	0x3ddfc845	0.1092687
12	0x3e1495a5	0.1451021
13	0x3eb14021	0.3461924
14	0xbd44e350	-0.048068345
15	0xbd59ae7c	-0.053144917
16	0x3e0324ec	0.12807053
17	0x3cc0d8cf	0.023540882
18	0xbdfed3bd	-0.124427296
19	0x3c47f5f0	0.012204632
20	0x3e3422ac	0.17591351
21	0x3e89f5a7	0.2694523
22	0xbcce0402	-0.025148395
23	0x3e162098	0.14660871
24	0xbd639aca	-0.05556754
25	0xbde35ff0	-0.11102283
26	0x3c5c2dae	0.013438625
27	0x3dc5bed2	0.09655537
28	0x3d9b87c2	0.07594253
29	0x3d79e97a	0.061013676
30	0xbd929f38	-0.07159275
31	0xbca45104	-0.020058163
32	0xbf2eb03e	-0.68237674
33	0x3e3fe521	0.1873975
34	0x3e3d62e9	0.18494762
35	0xbec06f30	-0.3758483
36	0x3e64e182	0.2235165
37	0x3de517a5	0.111861505
38	0xbe6a472c	-0.22878712
39	0xbe08eda8	-0.13371909
40	0xbd921940	-0.07133722
41	0xbd890bcf	-0.066917054
42	0x3e6ebed4	0.23314983
43	0x3d898388	0.06714541
44	0xbc930e1d	-0.017951066
45	0xbc87f99d	-0.016598517
46	0xbca3402f	-0.019928066
47	0xbe327d5c	-0.17430633
48	0x3e06cd1b	0.13164179
49	0x3da6a865	0.081375875
50	0xbdd3185b	-0.1030738
51	0x3e420955	0.18948872
52	0xbc4ee12e	-0.012626929
53	0xbdb08975	-0.08619968
54	0x3dd87ecf	0.10571062
55	0xbd984aa5	-0.07436112
56	0x3e137bc0	0.14402676
57	0x3cf0e4eb	0.029406032
58	0x3dbe6e47	0.092983775
59	0x3e613c69	0.21995701
60	0x3cf7909e	0.030220326
61	0x3e09e7bb	0.13467304
62	0x3d77188a	0.060326137
63	0xbd6097c9	-0.054832254
64	0xbdb29214	-0.087192684
65	0x3f67bd43	0.90523165
66	0xbe95cc0e	-0.29257244
67	0xbd286837	-0.041115012
68	0xbd01d218	-0.0316945
69	0xbe312e18	-0.1730274
70	0xbdac51ea	-0.08414061
71	0x3e6a749f	0.2289605
72	0x3df45a5e	0.11931299
73	0xbe2dc81e	-0.1697087
74	0xbe241323	-0.16022925
75	0x3d8a4611	0.06751645
76	0x3de03d4b	0.10949191
77	0xbcabf7e5	-0.020992229
78	0xbd021647	-0.031759527
79	0x3ecd8a33	0.401445
80	0x3d4e1ebb	0.050322276
81	0x3dcd029b	0.100102626
82	0x3cb97338	0.022637948
83	0xbd00989b	-0.031395536
84	0xbe3a7982	-0.18210414
85	0xbd8f59b8	-0.06999534
86	0xbdac5225	-0.08414105
87	0xbdef8a3c	-0.11696288
88	0xbd824643	-0.063610576
89	0x3e02bda3	0.12767653
90	0x3b8a4a1a	0.0042202594
91	0x3e023ffb	0.12719719
92	0xbe8f30ee	-0.27967018
93	0xbdaff17f	-0.085909836
94	0x3d908d91	0.07058252
95	0xbd916a39	-0.071003385
96	0x3db806d5	0.08985678
97	0x3d680e02	0.056653984
98	0xbf18d42c	-0.5969875
99	0x3ed5d2c7	0.41762373
100	0x3d8edaea	0.06975348
101	0xbddfaa05	-0.109211005
102	0x3e196d10	0.1498301
103	0x3ef4b47b	0.47793946
104	0x3ec892bb	0.39174446
105	0xbe81b12b	-0.2533048
106	0x3e2acf6c	0.16680688
107	0xbeb835a3	-0.35978422
108	0xbd16105b	-0.03663669
109	0x3d2a6ee5	0.041609664
110	0xbdf83565	-0.12119559
111	0xbdbce0e5	-0.09222583
112	0xbc6e7b2c	-0.014555734
113	0xbe0b6d9b	-0.1361603
114	0xbd8b6865	-0.06807021
115	0xbbf6452a	-0.007515569
116	0xbe15503d	-0.1458139
117	0x3b51a5a7	0.0031989606
118	0xbcb583ad	-0.022157514
119	0xbdc2cca9	-0.09511692
120	0x3d343d1f	0.044003602
121	0xbd100cca	-0.035168447
122	0xbdbbf3fb	-0.09177395
123	0xbd9c2e37	-0.07626002
124	0x3e571b1a	0.21006432
125	0xbe92049d	-0.28519145
126	0xbdb95b4c	-0.090506166
127	0x3d8658f1	0.06559933
128	0xbd6190ef	-0.05506986
129	0x3dc68257	0.09692829
130	0x3d9c1a0b	0.07622155
131	0xbc7223e0	-0.014779061
132	0xbd4bd0dd	-0.049759734
133	0x3e261988	0.16220677
134	0x3e34b40b	0.17646806
135	0x3d175497	0.036945906
136	0xbd03917b	-0.032121163
137	0xbcd5ab57	-0.026082678
138	0xbe72593c	-0.23666853
139	0x3e7d75da	0.24751988
140	0x3ed15c2b	0.4089063
141	0xbda28670	-0.07935798
142	0xbca0a2dc	-0.019608907
143	0x3e1ea47e	0.15492436
144	0x3d9544d1	0.07288516
145	0x3d8db41e	0.0691912
146	0xbe385f17	-0.18005024
147	0xbe6fd1b4	-0.23419839
148	0xbd695987	-0.056970146
149	0xbc7d5e6b	-0.0154644055
150	0x3d19b8ac	0.037529632
151	0xbd0c02b5	-0.03418227
152	0xbdf9ef33	-0.12203827
153	0xbcafa4ef	-0.021440951
154	0x3d38be77	0.045103516
155	0x3db6091a	0.08888455
156	0x3daf96dc	0.08573696
157	0xbeb9f220	-0.3631754
158	0x3d2df531	0.04247016
159	0x3d3dd1d8	0.0463427
160	0xbd39edaf	-0.04539269
161	0x3cd78d60	0.02631253
162	0xbd8e2494	-0.069405705
163	0xbc19afb8	-0.0093802735
164	0x3f362af7	0.7115931
165	0xbd93ac5c	-0.07210609
166	0x3e0c040e	0.13673422
167	0x3e421761	0.18954231
168	0xbdf75559	-0.12076826
169	0xbdd84190	-0.1055938
170	0x3ab3b8fe	0.0013711748
171	0x3d50adc0	0.05094695
172	0xbe483489	-0.1955129
173	0x3e2de6fd	0.16982646
174	0x3b488c81	0.0030601325
175	0xbd11218c	-0.035432383
176	0x3e92c38b	0.28664812
177	0x3d77bdfc	0.060483918
178	0xbc2511e7	-0.010075069
179	0x3d1bb18c	0.03801112
180	0xbe2871fc	-0.16449732
181	0xbe01e501	-0.12685014
182	0xbdd870ad	-0.10568366
183	0x3dcb0871	0.099137194
184	0x3de3d9e8	0.11125547
185	0xba214767	-0.00061523024
186	0x3e6fe278	0.23426235
187	0x3d7b1168	0.061295897
188	0x3e3a1a3f	0.18174075
189	0x3bcebf26	0.0063094078
190	0xbd9d2764	-0.07673529
191	0xbe998452	-0.29983765
192	0x3da8aab3	0.08235683
193	0x3e1b9dad	0.15196867
194	0xbcb92570	-0.02260086
195	0xbdae401d	-0.085083224
196	0x3d28e196	0.04123076
197	0xbfb8bcee	-1.4432657
198	0x3e41f38f	0.18940566
199	0xbe0f3650	-0.13985562
200	0xbf11f95b	-0.5702111
201	0x3c920f8c	0.017829679
202	0x3e376038	0.17907798
203	0x3e8a7611	0.27043203
204	0xbeb4ea50	-0.35335016
205	0xbd1089c2	-0.035287626
206	0x3cca095f	0.024662672
207	0x3dfec105	0.12439159
208	0x3dbdca7b	0.09267136
209	0x3e274225	0.16333826
210	0xbdb07705	-0.08616451
211	0xbc800317	-0.015626473
212	0xbddd5e7c	-0.10809037
213	0x3dbe8736	0.09303133
214	0xbe12598a	-0.14291969
215	0xbe2b3b93	-0.16721945
216	0x3e613777	0.21993814
217	0x3d45d863	0.048302066
218	0x3e0db918	0.13840139
219	0x3d7c3e90	0.0615831
220	0xbdc38fb0	-0.095488906
221	0x3d6fd4c6	0.058552526
222	0xbd15cd86	-0.036572956
223	0x3d870e65	0.065945424
224	0xbd9d650e	-0.0768529
225	0x3c90295d	0.017597849
226	0x3e470359	0.19434871
227	0xbc162e10	-0.009166256
228	0x3d7afb5b	0.061274868
229	0xbd2d3a36	-0.042291842
230	0xbd557594	-0.052114084
231	0xbeab4660	-0.3345213
232	0xbe3988ce	-0.18118593
233	0xbe8d447c	-0.27591312
234	0x3cef5113	0.029213464
235	0xbe6f37e7	-0.23361169
236	0x3e29cbc9	0.16581644
237	0x3e2865c7	0.16445075
238	0x3c80577f	0.015666721
239	0x3ddb06f7	0.10694688
240	0xbd60ab86	-0.054851077
241	0x3b20a374	0.0024511488
242	0xbd9e38cd	-0.07725678
243	0x3d089981	0.033349518
244	0x3d4adc51	0.049526516
245	0xbdb83e81	-0.08996297
246	0xbc3436dd	-0.010999409
247	0x3e1d13c8	0.15339577
248	0xbbd9dee7	-0.0066488865
249	0x3b3d7370	0.0028907917
250	0x3d0c3d4a	0.034238137
251	0xbda92224	-0.08258465
252	0x3d210b46	0.03931739
253	0x3c9276c5	0.0178789
254	0xbcb6a346	-0.022294652
255	0xbdcf41b8	-0.10119957

fc1.bias f4 [128]
0	0x3d063675	0.032766778
1	0x3dfe56ed	0.124189235
2	0xbd903695	-0.07041661
3	0xbe069aab	-0.13144939
4	0xbe8b83e5	-0.27249065
5	0x3dbc8eb4	0.09206906
6	0xbd8b99d7	-0.06816452
7	0xbcd2c1e9	-0.02572723
8	0xbe45751e	-0.19282958
9	0xbdf18fc4	-0.11794999
10	0xbd4b6e19	-0.049665544
11	0xbdaaca2c	-0.083393425
12	0x3da5c450	0.08094084
13	0x3ddee877	0.10884183
14	0xbde82cc8	-0.11336666
15	0xbe1e762d	-0.15474768
16	0x3cd60c7e	0.026129004
17	0x3df28f15	0.11843697
18	0x3d5033cf	0.05083066
19	0x3d0c0df2	0.034192987
20	0x3e42b75c	0.19015259
21	0x3d424709	0.047431026
22	0xbe251138	-0.1611985
23	0xbad98dd2	-0.0016598052
24	0xbd467059	-0.048446987
25	0xbdaa59cf	-0.08317911
26	0xbdcb41ff	-0.09924697
27	0xbe5694b7	-0.20955168
28	0x3d87ed5c	0.066370696
29	0x3c8dcb8c	0.017308973
30	0xbe07e10f	-0.13269447
31	0x3dcbc1d7	0.099490814
32	0xbe680d47	-0.22661315
33	0xbdebb428	-0.115089715
34	0xbe4d7118	-0.20062673
35	0x3d73448b	0.05939154
36	0xbdb84ad3	-0.089986466
37	0x3e0315e3	0.12801318
38	0xbe1b9a16	-0.15195498
39	0xbe12f139	-0.14349832
40	0xbd39bd67	-0.045346644
41	0x3c670553	0.0141003905
42	0xbe33fb81	-0.1757641
43	0x3c741784	0.014898185
44	0x3e7123c8	0.23548806
45	0x3defc7b8	0.11708015
46	0xbd8a9a6c	-0.06767735
47	0x3d928d9c	0.07155916
48	0x3e3f1864	0.18661648
49	0xbe2e345a	-0.17012158
50	0x3e209383	0.15681271
51	0xbd81c841	-0.063370235
52	0x3dacd19e	0.08438419
53	0x3e306b97	0.17228542
54	0xbec37f8f	-0.38183257
55	0xbdaeb303	-0.085302375
56	0xbe150916	-0.14554247
57	0x3d747dfd	0.059690464
58	0xbe7c4029	-0.2463385
59	0xbdcd3bee	-0.10021196
60	0xbbf24069	-0.007392932
61	0xbce7687f	-0.02824807
62	0x3d202b80	0.039103985
63	0xbc1e0bce	-0.009646369
64	0xbe67fa9e	-0.22654197
65	0xbc9b5744	-0.01896251
66	0x3ddbcc87	0.1073237
67	0xbde30263	-0.110844396
68	0x3e6b94f9	0.23006047
69	0xbd9699b4	-0.07353535
70	0xbe6650c8	-0.22491753
71	0xbdca798b	-0.09886464
72	0x3cb89b4f	0.022534994
73	0x3e82be6e	0.2553591
74	0xbd942c16	-0.07234971
75	0x3da1309b	0.07870599
76	0xbe8469d4	-0.2586199
77	0x3e13a7d4	0.1441949
78	0xbe3676f7	-0.17818819
79	0xbd5881ce	-0.052858166
80	0xbdd5071a	-0.10401745
81	0x3e335554	0.17513019
82	0x3c591e98	0.013251923
83	0x3e671ae4	0.22568852
84	0xbe4c62f3	-0.19959621
85	0x3e016495	0.12636025
86	0xbe7d96c7	-0.24764548
87	0xbdedd9da	-0.116138175
88	0x3e7d92b6	0.24762997
89	0x3d2682f8	0.040652245
90	0xbdecfce4	-0.115716726
91	0xbe03f005	-0.12884529
92	0x3dcef3a4	0.101050645
93	0x3df2832e	0.11841427
94	0x3d84fa32	0.064930335
95	0x3e0ca8c5	0.13736255
96	0x3e1c572b	0.15267627
97	0x3de3be8a	0.11120327
98	0xbe72b44e	-0.23701593
99	0x3e807d9b	0.2509583
100	0x3dcac6ad	0.09901176
101	0xbe255acb	-0.16147916
102	0x3d769160	0.060197234
103	0x3d4f0c31	0.050548736
104	0xbcf94f94	-0.030433454
105	0x3d7c8194	0.061647013
106	0xbc7097f8	-0.01468467
107	0x3cac9f24	0.021071978
108	0x3e1a758c	0.15083903
109	0x3df22e68	0.118252575
110	0xbdb239fe	-0.087024674
111	0xbdf2fd1b	-0.11864682
112	0x3d5f0a65	0.054453272
113	0xbd8d4f46	-0.06899886
114	0x3dba8c0a	0.091087416
115	0xbd992343	-0.07477429
116	0xbdfee082	-0.12445165
117	0x3cedc91b	0.029026559
118	0xbc0005d9	-0.007813894
119	0x3d967cca	0.073480204
120	0x3e760630	0.24025798
121	0x3e44b10a	0.1920816
122	0xbd25cf1e	-0.040480725
123	0x3ce4a14e	0.027908947
124	0xbe1a58f1	-0.15072991
125	0x3bc58392	0.0060276473
126	0xbe3931d3	-0.18085413
127	0xbe4964e6	-0.19667396

fc2.weight f4 [64, 128]
0	0x3ce8eca9	0.02843316
1	0x3ebdb487	0.37051794
2	0xbe169d0e	-0.14708349
3	0x3e58ab41	0.21159078
4	0x3e51f8ea	0.2050511
5	0xbae01633	-0.001709646
6	0xbe0dd635	-0.13851245
7	0xbe494973	-0.19656925
8	0xbea28fc4	-0.3175031
9	0xbeddc309	-0.43312863
10	0x3e3d812c	0.18506306
11	0x3d06d1ff	0.03291511
12	0x3c990450	0.018678814
13	0xbdabfe89	-0.08398158
14	0xbe888497	-0.26663658
15	0x3e604866	0.21902618
16	0xbc1e59eb	-0.009664993
17	0x3e41b917	0.18918262
18	0x3e4543ea	0.19264188
19	0xbea1eb3e	-0.31624788
20	0xbe36df4d	-0.1785862
21	0xbe8d262c	-0.27568185
22	0xbe69b30b	-0.22822206
23	0xbe232f32	-0.15935972
24	0xbe91f354	-0.28505957
25	0x3e7f8396	0.2495254
26	0x3eba378c	0.36370504
27	0xbd2d5ba2	-0.042323716
28	0x3dadf8c4	0.08494714
29	0x3e9732eb	0.29531035
30	0xbdb4326b	-0.08798679
31	0x3d211fe4	0.039337054
32	0xbdd5147d	-0.104042985
33	0x3e473279	0.19452848
34	0x3d8fc88b	0.070206724
35	0xbbabab54	-0.0052389298
36	0xbe69cb78	-0.22831523
37	0xbe80c13c	-0.25147426
38	0x3e98c52f	0.2983794
39	0xbdae3793	-0.08506694
40	0xbc5e86b4	-0.01358192
41	0x3e102d52	0.14079788
42	0x3e2faab2	0.17154959
43	0xbe101893	-0.14071874
44	0xbe54bc68	-0.20774996
45	0xbeaa0283	-0.3320504
46	0xbe130f37	-0.14361273
47	0xbd45275d	-0.048133243
48	0x3ec438c8	0.3832457
49	0x3df89ad5	0.12138907
50	0xbd95a7e7	-0.073074155
51	0xbdce097d	-0.100604035
52	0x3e0eb587	0.13936435
53	0xbd0c9c6b	-0.03432886
54	0x3dc8de63	0.09808042
55	0x3ce47e55	0.027892271
56	0x3da2a416	0.07941453
57	0xbce886cc	-0.028384589
58	0xbd90a6c6	-0.070630595
59	0xbb191b51	-0.002336223
60	0x3e93b67e	0.28850168
61	0x3d9158f0	0.070970416
62	0x3cb97127	0.022636963
63	0x3ebd5248	0.36976838
64	0xbc2332ef	-0.009960874
65	0xbc88a6c8	-0.01668109
66	0x3dc2af0e	0.09506045
67	0xbd1c0ae0	-0.03809631
68	0xbe40e20f	-0.18836235
69	0x3ce1f6eb	0.02758356
70	0xbee147dd	-0.4400014
71	0xbe2823cf	-0.1641991
72	0x3c5fd544	0.013661686
73	0x3d8b4d8c	0.068019
74	0xbe92d863	-0.28680715
75	0xbbdbc8aa	-0.0067072706
76	0xbe235f3e	-0.15954301
77	0x3b8a7a39	0.004225996
78	0xbd3b611e	-0.045746915
79	0x3e4164a9	0.18886055
80	0x3d011fdb	0.03152452
81	0x3e0f5aaa	0.1399943
82	0x3d374ae8	0.04474917
83	0x3b817630	0.0039508566
84	0x3e91ac19	0.28451613
85	0xbe08a336	-0.1334351
86	0xbe431531	-0.19051053
87	0x3d471f2f	0.048613723
88	0x3ea138c2	0.31488615
89	0x3e09cc89	0.1345693
90	0xbe7e2055	-0.24817021
91	0x3d194963	0.037423503
92	0x3e86c01f	0.26318452
93	0x3e9f3f3c	0.31102931
94	0x3e94ed4f	0.29087302
95	0x3d83f298	0.064427555
96	0xbe6537a3	-0.22384505
97	0xbd60eabe	-0.054911368
98	0x3ea3702d	0.3192152
99	0x3e86cf65	0.26330104
100	0xbc079336	-0.008274844
101	0xbe628779	-0.22121991
102	0x3e26bacd	0.16282196
103	0x3e298dc8	0.16557992
104	0xbce09ece	-0.027419474
105	0x3d0023f5	0.03128429
106	0xbd808d07	-0.06276899
107	0xbd9ed834	-0.07756081
108	0x3d9a1601	0.07523728
109	0x3d5664c9	0.05234221
110	0x3d6ccc94	0.05781229
111	0xbe3eb53c	-0.18623823
112	0x3d798e05	0.060926456
113	0x3ca04d7b	0.019568196
114	0xbd9b0058	-0.07568425
115	0x3d28bd36	0.04119607
116	0x3de3d61b	0.11124822
117	0xbe25a3df	-0.16175793
118	0xbee22b42	-0.44173628
119	0x3e7f4ec6	0.24932393
120	0x3dcae058	0.099060714
121	0xbe3aacf4	-0.18230039
122	0xbe765887	-0.24057208
123	0x3e82e7f2	0.25567585
124	0x3dd0302c	0.10165438
125	0xbe3e68b4	-0.18594629
126	0xbb938508	-0.0045019425
127	0xbdcdaef8	-0.10043138
128	0x3e833a69	0.256305
129	0x3d72ab8d	0.059245635
130	0x3e5a157a	0.21297255
131	0x3e6cabbc	0.23112386
132	0x3e7b9fe9	0.2457272
133	0xbe4972ad	-0.19672652
134	0x3d9036b9	0.070416875
135	0xbd17c5a3	-0.037053715
136	0x3d875cc3	0.0660949
137	0xbedce2cd	-0.43141785
138	0xbeab2b4c	-0.3343147
139	0x3e208477	0.15675531
140	0x3e0f6236	0.14002308
141	0x3ddafe4e	0.10693036
142	0xbeb2ff4f	-0.3496041
143	0xbe437a2b	-0.19089572
144	0xbc994cce	-0.018713381
145	0x3ea724c0	0.32645226
146	0x3e1bdd51	0.15221144
147	0x3ea62cb4	0.3245598
148	0xbd053a30	-0.032526195
149	0xbe0b22a0	-0.13587427
150	0xbd97ca29	-0.07411606
151	0x3be06d8c	0.0068489965
152	0xbd64ddb0	-0.05587548
153	0x3e71a62c	0.23598546
154	0xbe1dd9ea	-0.15415159
155	0x3e5c1162	0.21491006
156	0xbdc0c37a	-0.09412284
157	0xbeb2fa88	-0.34956765
158	0x3d04b830	0.032402217
159	0x3e19cdcc	0.15019912
160	0xbe13cbf7	-0.14433275
161	0x3e9c73de	0.3055715
162	0x3ead32d7	0.3382785
163	0xbe043d2f	-0.12913965
164	0xbe5dd8cc	-0.21664733
165	0x3e50689f	0.2035241
166	0x3d9ac582	0.07557203
167	0xbe0fb634	-0.14034349
168	0x3e6bac8c	0.2301504
169	0x3c9d3192	0.019188676
170	0x3d902a1b	0.07039281
171	0x3deb84d8	0.11499947
172	0x3e6f5fdc	0.23376411
173	0xbe11406a	-0.14184728
174	0x3e81ce4b	0.25352702
175	0x3e16aad9	0.1471361
176	0xbe680af3	-0.22660427
177	0x3d3973a1	0.045276288
178	0x3e80a7ee	0.2512812
179	0x3effc153	0.49952182
180	0x3ca939cf	0.020657448
181	0xbe3a6f10	-0.1820643
182	0xbee2dc96	-0.4430892
183	0x3ea437fa	0.32073957
184	0x3eb0f232	0.3455978
185	0xbf04d010	-0.5187998
186	0x3f14ebe6	0.5817245
187	0xbc7012ef	-0.014652952
188	0xbe8999d4	-0.26875174
189	0xbe8048cd	-0.25055543
190	0xbe818b89	-0.2530177
191	0xbe7bfd4b	-0.24608342
192	0x3e8c28f2	0.2737499
193	0x3e932676	0.2874028
194	0xbdc8b71a	-0.09800549
195	0x3dae9be8	0.085258305
196	0xbd8ee74f	-0.06977712
197	0xbd02ed2b	-0.031964462
198	0x3db9040b	0.09033974
199	0x3e5f8541	0.21828176
200	0xbda2f630	-0.07957113
201	0xbdeeb34e	-0.116552934
202	0x3ddf5d5d	0.109064795
203	0xbe5c31c6	-0.21503362
204	0x3e60f929	0.21970047
205	0xbdf0dca4	-0.11760834
206	0x3e81b60b	0.253342
207	0x3e58f3c6	0.21186742
208	0xbd8b03c4	-0.067878276
209	0xbe18b09f	-0.14911126
210	0x3e6c84d8	0.23097551
211	0x3e6b8224	0.22998863
212	0xbe4fbfcb	-0.20288007
213	0x3e64b2ac	0.22333783
214	0xbd1ebd15	-0.03875454
215	0xbcbf4b30	-0.023351282
216	0x3d8c9ff4	0.06866446
217	0x3ea84cf9	0.32871225
218	0xbdf9fdf6	-0.12206642
219	0xba3c0f11	-0.0007173876
220	0x3cd3e1f5	0.02586458
221	0xbc72f9df	-0.014830082
222	0x3ec882c5	0.3916227
223	0x3e6efc23	0.2333837
224	0xbe8701d6	-0.26368588
225	0x3ed1137a	0.40835172
226	0x3edf6c50	0.43637323
227	0xbbecc745	-0.007225903
228	0x3d81a57d	0.063303925
229	0xbf153a5f	-0.5829219
230	0x3da451fb	0.08023449
231	0x3d995d54	0.07488504
232	0x3e157537	0.14595495
233	0x3e43c423	0.19117789
234	0x3e974915	0.29547945
235	0xbdadef19	-0.0849287
236	0xbeb3d374	-0.35122263
237	0xbf079d06	-0.52973974
238	0xbea3e9f0	-0.32014418
239	0xbe166735	-0.14687808
240	0x3eb90c55	0.3614222
241	0x3e59ddfe	0.2127609
242	0xbe24f49a	-0.16108933
243	0x3d15e18c	0.03659205
244	0x3d838f19	0.06423778
245	0xbe89ca72	-0.26912266
246	0xbd38e8f8	-0.04514405
247	0xbe66742e	-0.22505257
248	0xbe63e9d7	-0.22257172
249	0xbe255901	-0.16147234
250	0x3da1144c	0.078651994
251	0x3ed5fc78	0.4179418
252	0xbc3057ca	-0.010763118
253	0xbdbffb0e	-0.09374057
254	0x3f323f77	0.6962809
255	0x3e876f4c	0.264521

fc2.bias f4 [64]
0	0xbc9cdda1	-0.01914865
1	0xbc752fde	-0.014965026
2	0x3d9fbb5a	0.07799406
3	0xbbbf6d4b	-0.005841886
4	0xbe25ebfa	-0.16203299
5	0x3d674e0f	0.056470927
6	0xbd794a24	-0.06086172
7	0xbdeed1d2	-0.11661114
8	0xbce212d0	-0.027596861
9	0x3d25e4f5	0.040501554
10	0xbcd1238b	-0.025529644
11	0xbc84e28d	-0.01622131
12	0x3e2310a5	0.15924318
13	0xbdd88ba7	-0.105735116
14	0xbc973253	-0.018456614
15	0x3d831b17	0.06401651
16	0xbbce4031	-0.0062942733
17	0x3d0cf681	0.034414772
18	0xbd0df325	-0.03465571
19	0xbe2d2d5e	-0.16911837
20	0xbd2a3cba	-0.04156182
21	0xbd49e923	-0.049294602
22	0xbccfce79	-0.025367009
23	0x3d6c0210	0.057619154
24	0x3e2d4660	0.16921377
25	0x3d2ee55d	0.042699207
26	0x3df863fb	0.12128445
27	0x3e1f78df	0.15573452
28	0x3d1052be	0.03523516
29	0xbd11fba5	-0.035640378
30	0xbc98339e	-0.0185793
31	0x3c614b0e	0.013750805
32	0xbd608fbf	-0.054824587
33	0x3db3f0c2	0.08786155
34	0xbd95b6fd	-0.07310293
35	0x3c325c24	0.010886226
36	0x3d1438e9	0.036187086
37	0x3d84e42d	0.064888336
38	0xbd1fb03b	-0.038986426
39	0xbd4dbc57	-0.050228443
40	0xbc83372b	-0.016017517
41	0x3d9d5bcb	0.07683524
42	0xbde358b6	-0.11100905
43	0xbd39892f	-0.045296844
44	0xbb7841f2	-0.0037881103
45	0xbda1c7c6	-0.07899432
46	0xbe6fa3a7	-0.23402272
47	0x3c047bf7	0.008086196
48	0xbd6cfc34	-0.057857707
49	0x3e0cea32	0.13761213
50	0x3e09540a	0.13410965
51	0x3c8e88ac	0.017399155
52	0x3d9ff018	0.07809466
53	0x3c19f1bb	0.009396012
54	0x3d5c31cc	0.053758428
55	0x3d85cbc7	0.06533008
56	0x3d2572ea	0.040392794
57	0xbdd041bd	-0.101687886
58	0xbda59ae5	-0.080861844
59	0x3baef09b	0.005338741
60	0x3d9ab0fa	0.07553287
61	0x3d1605ab	0.0366265
62	0x3e209bec	0.1568448
63	0x3d4e51b4	0.050370887

fc3.weight f4 [4, 64]
0	0xbe1671f7	-0.14691912
1	0xbf1bbaa9	-0.60831696
2	0x3f56c40d	0.838929
3	0xbdd644c5	-0.104623355
4	0x3fa9a486	1.3253334
5	0x3e5537ee	0.20822117
6	0x3d2dde2f	0.04244822
7	0x3ea8b313	0.32949123
8	0xbcda7f8f	-0.026672153
9	0x3f4277be	0.7596396
10	0xbefbd85d	-0.4918851
11	0xbd0a9eb2	-0.03384275
12	0xbda1d5ea	-0.07902129
13	0x3f057913	0.5213787
14	0xbef3a2c6	-0.47585124
15	0x3e8e9dad	0.27854672
16	0xbec33449	-0.38125828
17	0xbe8723ce	-0.26394504
18	0xbf78d3c1	-0.9719811
19	0x3da43f66	0.08019905
20	0x3e62e01f	0.22155808
21	0x3d655c04	0.055995956
22	0x3e6e2076	0.2325457
23	0x3f8be8f9	1.0930473
24	0x3f46d9d4	0.7767613
25	0xbe4d4c97	-0.20048748
26	0xbe88336b	-0.2660173
27	0xbe4aa45a	-0.19789258
28	0xbe789657	-0.242761
29	0xbe4cc138	-0.19995582
30	0x3d0cb976	0.034356557
31	0x3e524e59	0.205377
32	0x3ececed3	0.4039217
33	0x3da4a773	0.08039751
34	0x3efbef9e	0.4920625
35	0x3f1089fc	0.5646055
36	0xbee88119	-0.45410994
37	0x3e2f1fad	0.17101927
38	0x3e8fe259	0.28102377
39	0x3e8736a4	0.26408875
40	0xbdea481d	-0.11439536
41	0x3c03ae61	0.008037181
42	0x3f5984b4	0.84968114
43	0xbf6c3579	-0.9226909
44	0x3db4b318	0.08823222
45	0x3f4bd912	0.796281
46	0x3f6bab1d	0.92057973
47	0x3c459722	0.012059959
48	0x3f3e5986	0.7435535
49	0xbf371048	-0.7150922
50	0x3e4b6712	0.19863537
51	0x3e223ea5	0.1584421
52	0x3f18d338	0.59697294
53	0xbf08edf3	-0.5348808
54	0xbdee98c7	-0.11650234
55	0x3f694686	0.91123235
56	0xbeec0d18	-0.4610374
57	0xbfc5e7ac	-1.5461326
58	0x3ebc9e2b	0.36839423
59	0x3e54ec71	0.2079332
60	0x3d9ab37f	0.075537674
61	0xbeb2fe69	-0.34959725
62	0xbea9eb52	-0.33187348
63	0xbeb375e8	-0.35050893
64	0xbdb3914d	-0.08767948
65	0xbe518a16	-0.20462832
66	0xbbe0fd6b	-0.0068661473
67	0xbe327468	-0.17427218
68	0xbee96ed9	-0.45592383
69	0x3e1bace8	0.15202677
70	0xbeda74c7	-0.4266722
71	0xbea3ea53	-0.32014713
72	0x3e96218f	0.29322478
73	0x3f4e2179	0.80519825
74	0xbd2746f1	-0.04083914
75	0x3e602751	0.21889998
76	0x3ec62f75	0.38708082
77	0xbe3d528c	-0.1848852
78	0xbe4fd45b	-0.20295851
79	0x3e184cd6	0.1487306
80	0x3f2bf925	0.6717704
81	0xbf80489f	-1.0022162
82	0xbe8f1b76	-0.2795064
83	0xbe917ca5	-0.2841541
84	0x3e4ff293	0.20307378
85	0xbda6a373	-0.08136644
86	0x3f498ce5	0.78730613
87	0x3f10a8cc	0.56507564
88	0xbe5fc90a	-0.21854034
89	0xbe916de7	-0.2840416
90	0xbe39cc95	-0.18144448
91	0xbea3b8b0	-0.31976843
92	0xbe93aa1b	-0.28840718
93	0x3f1cf5f6	0.61312807
94	0x3e80c3eb	0.25149474
95	0x3f4e1d12	0.8051311
96	0x3ecfbb84	0.4057275
97	0xbdd6403b	-0.1046147
98	0xbcbe4c8d	-0.023229862
99	0xbeb849cb	-0.359938
100	0x3b0869e2	0.0020815064
101	0x3e987a7b	0.29780945
102	0xbf0e084d	-0.55481416
103	0xbe4f8ac5	-0.2026778
104	0x3efc26fc	0.49248493
105	0xbef50750	-0.47857141
106	0xbdaaa4c0	-0.08332205
107	0x3e4e3457	0.20137154
108	0x3f794796	0.97374856
109	0x3f1692ff	0.5881805
110	0x3dae9129	0.08523781
111	0x3f331811	0.699586
112	0xbf22ce2c	-0.63595843
113	0xbdecb350	-0.11557639
114	0x3e6cc5e7	0.23122369
115	0x3f32b7a0	0.6981144
116	0xbe88dcb9	-0.26730898
117	0xbe39b4d2	-0.18135384
118	0xbe686f0c	-0.22698611
119	0x3bd14453	0.0063863187
120	0xbf463ac1	-0.774334
121	0x3f804d3d	1.0023571
122	0xbf1ffa86	-0.62491643
123	0xbed6a550	-0.41922998
124	0x3e874a41	0.2642384
125	0x3e303114	0.17206222
126	0xbc1d831d	-0.009613779
127	0xbf76f485	-0.9646686
128	0x3da0120e	0.07815944
129	0x3e41eeee	0.189388
130	0x3e0e9df7	0.13927446
131	0x3d9da4ba	0.07697435
132	0x3d668962	0.056283362
133	0xbdb64da4	-0.089015275
134	0x3e067aad	0.13132735
135	0x3c9a8e26	0.01886661
136	0xbf4436be	-0.7664603
137	0xbd8679ba	-0.06566186
138	0x3dfd1f8a	0.12359531
139	0xbf68039c	-0.9063051
140	0x3e0058ef	0.12533925
141	0xbe0fe2f2	-0.14051417
142	0xbdb916c9	-0.09037549
143	0x3dba5e5a	0.091000274
144	0x3def5921	0.11686922
145	0xbeb72393	-0.35769328
146	0xbec7270a	-0.38896972
147	0xbd8cf3ab	-0.068824135
148	0xbf3f1ef7	-0.74656624
149	0xbfb346e6	-1.4006011
150	0x3e9d6189	0.30738476
151	0x3e778d2c	0.24174947
152	0x3d049fc0	0.032378912
153	0x3e23029e	0.15918967
154	0x3e163567	0.14668809
155	0x3e2fa3dd	0.17152353
156	0x3cf481e4	0.029847093
157	0xbd59dc9a	-0.053188898
158	0xbe73b0f9	-0.23797978
159	0xbd1d2b50	-0.038371384
160	0xbf377a2f	-0.7167081
161	0x3db638ce	0.088975534
162	0xbef0c075	-0.47021833
163	0x3c18246c	0.009286027
164	0x3d984b54	0.07436243
165	0x3de44303	0.11145594
166	0xbf705132	-0.93873894
167	0x3d9db94a	0.07701357
168	0x3c169208	0.00919009
169	0x3e4b862d	0.19875403
170	0xbf53a722	-0.826769
171	0xbd7c5d6b	-0.061612528
172	0x3e21816c	0.15772027
173	0x3e5c1f9b	0.21496432
174	0xbd2ad35f	-0.041705485
175	0xbcb04a6a	-0.021519858
176	0xbe2d7437	-0.16938864
177	0x3dad14ee	0.08451258
178	0x3d849234	0.064731985
179	0xbec878eb	-0.39154753
180	0xbe13df44	-0.14440638
181	0xbe568928	-0.20950758
182	0x3e27eaa4	0.16398102
183	0x3dbab3a5	0.09116296
184	0xbc3f95f1	-0.011693464
185	0xbe4bf5da	-0.19918004
186	0xbf1877fb	-0.59558076
187	0x3dbcfc0d	0.09227762
188	0x3dea7592	0.11448206
189	0x3f6f23ba	0.9341389
190	0x3e042965	0.12906416
191	0xbe3c2868	-0.18374789
192	0xbecabc0f	-0.39596602
193	0x3e00c6dc	0.12575859
194	0x3d68f9af	0.05687874
195	0xbe7c5cba	-0.24644747
196	0x3f8716b5	1.0553805
197	0x3e543a10	0.20725274
198	0xbf155065	-0.583258
199	0xbe0cc901	-0.13748552
200	0xbeaa5eb7	-0.33275387
201	0x3ed358f6	0.4127881
202	0xbe071a88	-0.13193715
203	0x3e8ead80	0.27866745
204	0xbf086e06	-0.5329288
205	0x3e899a59	0.2687557
206	0xbe09e9ba	-0.13468066
207	0xbed26419	-0.41091993
208	0x3e39af75	0.18133338
209	0x3e0cdc75	0.13755973
210	0xbdb67170	-0.08908355
211	0xbf039926	-0.5140556
212	0xbe4529cf	-0.1925423
213	0x3e157b8b	0.14597909
214	0xbe063d63	-0.13109355
215	0x3e8987f1	0.26861528
216	0x3eb306a0	0.34965992
217	0x3d9d97b9	0.076949544
218	0x3cde007a	0.027099837
219	0x3dbf3387	0.09336
220	0xbfa6ab99	-1.3021117
221	0x3ca1c613	0.01974777
222	0x3e95582d	0.29168835
223	0xbb05a93f	-0.0020395068
224	0x3e7e6361	0.24842598
225	0xbe8a982f	-0.27069232
226	0xbd4ef922	-0.05053056
227	0x3cc9f765	0.0246541
228	0xbc95ae77	-0.018271668
229	0x3d91cf11	0.07119573
230	0xbe368f2a	-0.1782805
231	0xbe346fe3	-0.17620806
232	0xbe64137a	-0.22273055
233	0x3e33c8a7	0.17557012
234	0xbf0a988b	-0.5413901
235	0x3f0c1a66	0.5472778
236	0xbe75cc02	-0.24003604
237	0xbe5c15b2	-0.21492651
238	0x3f238c8f	0.6388635
239	0x3f9459ca	1.1589901
240	0xbe7e3bb7	-0.24827467
241	0x3ea708c4	0.32623875
242	0xbe38f3f7	-0.18061815
243	0xbf5ad9d2	-0.8548862
244	0x3eed9b77	0.46407673
245	0x3e2b35d1	0.16719748
246	0xbd49103b	-0.049087744
247	0xbbb6e6a6	-0.0055816947
248	0x3e1283ab	0.1430804
249	0xbe98a188	-0.2981074
250	0xbcff18d4	-0.031139769
251	0xbe9d95f0	-0.30778456
252	0xbecd6a97	-0.40120384
253	0x3f8820a2	1.0634959
254	0x3d0c8111	0.034302775
255	0x3e880249	0.26564243

fc3.bias f4 [4]
0	0xbdbc581f	-0.09196495
1	0x3d36f3f0	0.04466623
2	0x3d8130fc	0.06308171
3	0x3c5a1923	0.013311657
