checkpoint_critic.pth (torch_old, 52701 bytes, 5 tensors)

fcs1.weight f4 [128, 33]
0	0xbe020caa	-0.12700143
1	0xbd8d23cf	-0.068915956
2	0x3d007a6b	0.031366747
3	0xbe90f06c	-0.28308427
4	0xbe81f033	-0.2537857
5	0x3cbe5a42	0.023236398
6	0xbe00be46	-0.12572584
7	0xbe748f56	-0.23882803
8	0xbe44c897	-0.19217144
9	0xbe8dbf6e	-0.27685112
10	0x3b06e864	0.0020585293
11	0x3cca64f2	0.024706338
12	0xbe05f4e3	-0.13081698
13	0x3bd5b04c	0.0065212604
14	0x3e423cdd	0.1896853
15	0xbe40234f	-0.18763469
16	0xbded6adb	-0.11592647
17	0x3d1f370b	0.038870852
18	0x3de8388c	0.113389105
19	0xbe34639f	-0.17616127
20	0xbd7922a3	-0.060824048
21	0x3db722a9	0.08942158
22	0x3e389a77	0.18027674
23	0x3e028e76	0.12749657
24	0x3d4729c0	0.0486238
25	0xbcbcda0c	-0.023053192
26	0x3e4c241a	0.19935647
27	0x3dbd4350	0.092413545
28	0x3e8fb7b5	0.28069845
29	0xbd2c7e03	-0.04211236
30	0xbd8637ca	-0.0655361
31	0xbd10f6da	-0.035391666
32	0xbfb1fc7d	-1.3905178
33	0x3e52eb54	0.20597583
34	0xbe82d4c9	-0.25552967
35	0xbefa8183	-0.48926935
36	0xbe7cd3e0	-0.24690199
37	0xbe5e30ca	-0.21698299
38	0x3fc8bd4c	1.5682769
39	0xbcae5b98	-0.02128391
40	0xbc17b474	-0.009259332
41	0xbd0d0be1	-0.034435157
42	0xbec495f6	-0.3839566
43	0x3d89f02e	0.06735264
44	0x3ce4d1d5	0.027932087
45	0x3c698ec7	0.014255232
46	0xbf01950a	-0.5061804
47	0x3e869318	0.262841
48	0x3e9a57fc	0.30145252
49	0xbe2126c3	-0.15737443
50	0xbe826097	-0.25464317
51	0x3ecdcbee	0.40194649
52	0xbd2e2359	-0.04251418
53	0x3c2d4139	0.010574632
54	0xbc9abf7c	-0.018890135
55	0x3dd065d0	0.10175669
56	0xbcdaa66f	-0.02669069
57	0x3d545a6f	0.051844057
58	0xb9792df8	-0.00023763615
59	0x3eb7de4f	0.35911795
60	0x3e70a37b	0.23499863
61	0xbe8eaa47	-0.27864286
62	0xbc8e5ad4	-0.017377295
63	0xbea12e1d	-0.31480494
64	0xbd1675b8	-0.03673336
65	0xbfb069bc	-1.3782268
66	0x3f58598a	0.84511626
67	0x3e84fbba	0.25973302
68	0x3e9bb31f	0.30410096
69	0xbe019ace	-0.1265671
70	0x3f435ec8	0.763165
71	0x3eb07dae	0.34470886
72	0xbd9bd647	-0.076092295
73	0xbeb3e884	-0.35138333
74	0x3d39fd34	0.04540749
75	0x3e8b88b4	0.27252734
76	0x3b86006c	0.0040894058
77	0x3d5779b9	0.05260632
78	0x3d4fb64e	0.05071097
79	0xbf66df55	-0.9018453
80	0xbc95f4cc	-0.018305205
81	0xbea1c020	-0.31591892
82	0xbf41cebd	-0.7570608
83	0x3e8012d7	0.25014374
84	0xbedf1a84	-0.43574917
85	0xbe382957	-0.1798452
86	0x3e136225	0.14392908
87	0xbe7b9bb8	-0.2457112
88	0xbdac2851	-0.08406127
89	0xbec0120a	-0.37513763
90	0xbdf44de1	-0.11928917
91	0xbe00efb5	-0.12591441
92	0x3f1832f0	0.59452724
93	0x3f523393	0.82109946
94	0x3c057f01	0.008147956
95	0xbcc49e84	-0.024001367
96	0xbf6ead34	-0.93233037
97	0x3c5a84d0	0.013337329
98	0xbf5ac7a1	-0.8546086
99	0x3d4d7047	0.050155904
100	0xbdd92405	-0.10602573
101	0xbd43b052	-0.047775574
102	0xbdc1d7c6	-0.09464984
103	0x3e0075dd	0.12544961
104	0xbd667da3	-0.05627216
105	0xbdf58432	-0.11988105
106	0x3d5740ab	0.052551907
107	0xbd5dfe75	-0.054197747
108	0xbd3b8905	-0.04578497
109	0x3cbf91f1	0.02338502
110	0xbce19031	-0.027534576
111	0x3c1c9590	0.009557143
112	0x3c909d6c	0.01765319
113	0x3d07a6d6	0.03311809
114	0x3cdf5f55	0.027267138
115	0xbdf5d6d3	-0.12003865
116	0x3c4a9acd	0.012366009
117	0xbda516dc	-0.08061001
118	0xbd2ee0da	-0.042694904
119	0xbc1109ae	-0.0088524055
120	0xbb18441b	-0.0023233953
121	0x3b724169	0.0036965257
122	0x3c0c8d4f	0.0085786125
123	0xbbc349c8	-0.005959723
124	0x3b93e5f5	0.004513497
125	0x3bb741a3	0.0055925413
126	0x3efb0dec	0.4903406
127	0xbda49489	-0.08036143
128	0x3db1e293	0.08685794
129	0xbecd6e03	-0.40122995
130	0xbdabd61d	-0.08390448
131	0x406993a0	3.6496353
132	0x3e000d4f	0.12505077
133	0xbe04503c	-0.12921232
134	0x3d9cce12	0.07656492
135	0x3e7c61d1	0.24646689
136	0x3ea4859a	0.3213318
137	0xbfd71532	-1.6803343
138	0xbd5decb2	-0.05418081
139	0xbe417cb9	-0.18895234
140	0x3e6765af	0.22597383
141	0xbe4cb74b	-0.19991796
142	0x3e298b41	0.16557027
143	0x3dbec25d	0.093144156
144	0x3d41ffad	0.047362972
145	0x3e60beca	0.2194778
146	0x3ececdf4	0.40391505
147	0x3e5cb68c	0.21554011
148	0xbe8e56b2	-0.27800518
149	0x3e6e130a	0.2324945
150	0x3c8528e3	0.016254848
151	0xbcca4718	-0.024692103
152	0x3daa5843	0.08317616
153	0x3e0fb143	0.14032464
154	0xbdd8d464	-0.10587385
155	0x3d2009d7	0.039071884
156	0x3cc88438	0.02447711
157	0x3d8198f4	0.063280016
158	0xbee5872a	-0.44829684
159	0x3f26d6ad	0.6517132
160	0xbee77f8f	-0.45214507
161	0x3d21c67e	0.039495938
162	0xbf160964	-0.5860808
163	0xbd2063b6	-0.03915759
164	0xbf3bb54a	-0.733235
165	0x3ef6097d	0.48054114
166	0x3f286ad9	0.65788037
167	0x3e78eb50	0.24308515
168	0xbf0c1656	-0.5472158
169	0x3f722849	0.9459272
170	0xbf267403	-0.6502077
171	0x3e76f4b9	0.24116792
172	0xbe7dc0c0	-0.2478056
173	0x3e51bdc5	0.20482548
174	0x3e8c1736	0.2736146
175	0x3ceed7d2	0.029155646
176	0xbe1d6ab3	-0.15372734
177	0xbdd1d22e	-0.10245167
178	0xbe8555e8	-0.26042104
179	0xbede6c8d	-0.43442193
180	0x3d655cb3	0.055996608
181	0xbeab9282	-0.33510214
182	0xbe68a105	-0.22717674
183	0x3f122db3	0.5710098
184	0x3e84b7d2	0.25921494
185	0x3d9ef6d9	0.07761926
186	0x3e212c5f	0.15739582
187	0xbe859679	-0.26091364
188	0xbd807c9b	-0.062737666
189	0xbe2764f2	-0.16347101
190	0x3e287ccb	0.16453855
191	0x3d943518	0.07236689
192	0x3fb36214	1.4014306
193	0x3e47e49e	0.19520804
194	0xbdb33ec4	-0.08752206
195	0xbfb69578	-1.4264364
196	0x3db2d4a5	0.08731965
197	0x3fcf0aed	1.6175209
198	0xbd89e326	-0.06732778
199	0x3efe23a6	0.49636573
200	0xbee97c1d	-0.45602503
201	0x3e02d1a5	0.12775286
202	0x3defb2c2	0.11704017
203	0xbe2d8e52	-0.16948822
204	0xbde6d589	-0.11271197
205	0x3ec5180e	0.38494915
206	0xbedc5575	-0.4303395
207	0x3f5baade	0.858076
208	0xbd7372bf	-0.059435602
209	0x3da8a19c	0.082339495
210	0x3d67618c	0.056489512
211	0x3e06fe76	0.13183007
212	0xbeb1ce23	-0.34727582
213	0x3e39b4de	0.18135402
214	0x3ca7d177	0.020485623
215	0x3ceb6a17	0.028737111
216	0x3e7b87f7	0.24563585
217	0x3d53cd73	0.051709604
218	0xbd020cac	-0.031750366
219	0x3d2c88fd	0.04212283
220	0x3dace104	0.08441356
221	0x3e179502	0.14802936
222	0xbde49324	-0.11160877
223	0x3e637706	0.22213373
224	0xbca824ac	-0.020525299
225	0x3d3a014b	0.04541139
226	0x3bae449f	0.005318239
227	0xbd94625f	-0.07245325
228	0xbbe38dd9	-0.0069444
229	0xbcd23abc	-0.025662772
230	0x3f73cb49	0.95232064
231	0x3b20857c	0.0024493625
232	0x3ebfb958	0.37446094
233	0xbed77c6c	-0.42087114
234	0xbea37a31	-0.31929162
235	0x3dfb7142	0.122774616
236	0xbfb6d861	-1.4284784
237	0x3ee564dc	0.44803512
238	0x3df48725	0.11939839
239	0xbc29bd79	-0.010360115
240	0xbee0ec3c	-0.43930233
241	0xba40dea3	-0.0007357394
242	0x3d6defc6	0.058089994
243	0x3d541b0b	0.051783603
244	0xbeb2bc4c	-0.34909284
245	0xbd060e08	-0.032728225
246	0x3ea98d3b	0.33115563
247	0x3f7d40aa	0.98926795
248	0x3e022496	0.12709269
249	0xbf1ef60a	-0.62094176
250	0x3e427ba0	0.18992472
251	0x3df30b23	0.118673585
252	0x3d6a89b4	0.05726023
253	0x3e6cbac1	0.23118116
254	0xbcfc087f	-0.03076577
255	0xbe3e25d4	-0.18569118

fcs1.bias f4 [128]
0	0x3e01a96a	0.12662283
1	0xbe47fb49	-0.19529451
2	0xbf839ef6	-1.0282886
3	0xbf0e30fa	-0.5554348
4	0xbf46f51b	-0.7771775
5	0xbfa08dc2	-1.2543261
6	0xbe1491e2	-0.14508775
7	0xbee17c27	-0.44040033
8	0xbf2b15fe	-0.6683043
9	0xbfcdf334	-1.6089845
10	0xbf8114cf	-1.0084475
11	0xbf8ff98a	-1.1248028
12	0xbf39f88d	-0.72644883
13	0xbf2ec020	-0.6826191
14	0xbf7e7d1d	-0.9940966
15	0xbd1b0fd9	-0.03785691
16	0xbe699411	-0.22810389
17	0xbf97126b	-1.1802496
18	0xbea89254	-0.3292414
19	0xbf842969	-1.0325137
20	0xbf613c5f	-0.87982744
21	0xbfaa8a1c	-1.3323398
22	0xbf488c17	-0.7833876
23	0xbba646f8	-0.005074378
24	0xbf871001	-1.0551759
25	0xbf0358fc	-0.51307654
26	0xbf827d6c	-1.0194526
27	0xbf2de476	-0.6792673
28	0xbc5edd8b	-0.013602625
29	0xbe8ed81e	-0.2789926
30	0xbf93b4c2	-1.1539538
31	0x3ecefbb1	0.404264
32	0xbf22602a	-0.63427985
33	0xbfabfdce	-1.343683
34	0x3f1817ac	0.5941112
35	0xbf5d32b6	-0.86405504
36	0xbf3dac10	-0.7409067
37	0xbe86c0bb	-0.26318917
38	0xbf700521	-0.93757826
39	0xbf8938b1	-1.0720426
40	0xbe95a61c	-0.29228294
41	0xbf662662	-0.8990232
42	0xbf246fd5	-0.6423314
43	0xbd5c6792	-0.05380971
44	0x3e86c9f6	0.2632596
45	0xbf261ca5	-0.6488746
46	0xbf8a0b2c	-1.0784659
47	0xbf279c33	-0.65472716
48	0xbcea28a0	-0.028583825
49	0xbfa2f212	-1.2730124
50	0xbf071e3d	-0.52780515
51	0xbee14dd7	-0.440047
52	0xbe3d0c6a	-0.18461767
53	0xbe83ee00	-0.25767517
54	0xbf12347c	-0.57111335
55	0xbd7b7856	-0.06139406
56	0xbf94bd8c	-1.1620345
57	0xbeabf68a	-0.33586532
58	0xbe5c8298	-0.21534193
59	0xbf9e5d3a	-1.23722
60	0xbe9671f4	-0.29383814
61	0xbf5710cb	-0.8401
62	0xbf9cfcf8	-1.22647
63	0xbf1d6295	-0.6147855
64	0xbf4864b9	-0.7827869
65	0xbec53534	-0.38517153
66	0xbf34e341	-0.7065926
67	0xbeefe6fb	-0.46855912
68	0xbf126782	-0.5718919
69	0xbdf04aca	-0.11733015
70	0xbf702787	-0.93810314
71	0xbf66cffb	-0.90161103
72	0xbf6edcea	-0.9330584
73	0x3d4ea601	0.050451282
74	0xbf0d10d2	-0.5510379
75	0xbf72dd22	-0.9486867
76	0x3dee4046	0.11633353
77	0xbf421de1	-0.7582684
78	0xbf08bb37	-0.5341067
79	0xbe1e55dd	-0.15462442
80	0xbf496aec	-0.78678775
81	0xbed4dd0e	-0.415749
82	0xbf4a283e	-0.78967655
83	0xbf545277	-0.8293833
84	0xbf31e1dc	-0.6948526
85	0xbf25f8ae	-0.6483258
86	0xbeb8ebc7	-0.36117384
87	0xbfa0cf04	-1.2563176
88	0xbf5396fb	-0.8265225
89	0xbed6f01a	-0.41980058
90	0xbf03e635	-0.51523143
91	0xbfd20a96	-1.640948
92	0xbd3a922f	-0.045549568
93	0xbf3d80c9	-0.74024636
94	0xbf8a63a0	-1.0811653
95	0x3e4c5be0	0.19956923
96	0x3df67c28	0.120354
97	0xbf2b2400	-0.66851807
98	0xbf9b144e	-1.2115571
99	0xbe6ca081	-0.23108102
100	0xbf64945e	-0.8928889
101	0x3f259c06	0.646912
102	0xbf9d6f91	-1.2299672
103	0xbec50d68	-0.3848679
104	0xbf4fa6bb	-0.81113786
105	0xbf804401	-1.0020753
106	0x3d68881c	0.05677043
107	0x3d80838c	0.062750906
108	0xbfc4d68c	-1.5377975
109	0xbf29a99d	-0.66274434
110	0xbfb2fe56	-1.3983867
111	0xbf01eb72	-0.50749886
112	0xbe63feea	-0.22265211
113	0xbf080117	-0.5312666
114	0xbf8df975	-1.1091753
115	0xbf2a3580	-0.66487885
116	0xbf7cfb98	-0.988214
117	0xbe3b487b	-0.18289368
118	0xbf10dea7	-0.5658974
119	0xbe27cffc	-0.16387933
120	0x3dd91631	0.10599936
121	0xbec249d4	-0.3794695
122	0xbf2d27e1	-0.67638975
123	0x3f68cd04	0.9093783
124	0xbf7303cd	-0.94927675
125	0xbf80c2b9	-1.0059425
126	0xbf32c93c	-0.6983831
127	0xbf537d4c	-0.8261306

fc2.weight f4 [64, 132]
0	0xbdb57bc7	-0.08861499
1	0xbe278826	-0.1636053
2	0x3f303947	0.688374
3	0xc016d52e	-2.3567615
4	0x3f3b25c1	0.7310448
5	0x3d583917	0.05278882
6	0xbefb8c85	-0.49130645
7	0x3f4ac724	0.79210114
8	0x3e6ff398	0.23432767
9	0x3e3de3af	0.18543886
10	0xbe6847cb	-0.22683637
11	0xbeeeda97	-0.46651146
12	0x3f14335b	0.5789086
13	0xbd46bfd1	-0.048522774
14	0xbf36dd15	-0.71431094
15	0xbeb02bde	-0.34408468
16	0xbcb2e995	-0.021839896
17	0xbf2d1ba5	-0.6762031
18	0xbeaf0173	-0.34180793
19	0xbdf78b1f	-0.12087082
20	0xbf89c180	-1.0762177
21	0xbe6cd330	-0.23127437
22	0xbed1838a	-0.4092067
23	0xbebc09c7	-0.3672621
24	0xbd6ee79e	-0.058326356
25	0xbe1686c7	-0.14699851
26	0xbf7ce3e7	-0.9878525
27	0xbe10611c	-0.14099544
28	0x3e17f79f	0.14840554
29	0xbd4be992	-0.049783297
30	0x3f07b2be	0.53007114
31	0xbeb9993d	-0.36249724
32	0x3f3ea1cc	0.7446563
33	0x3e96fb13	0.2948843
34	0xbe1f1b0a	-0.15537658
35	0x3dd52e63	0.10409238
36	0x3edd7997	0.43256828
37	0x3e0d1aef	0.13779806
38	0x3e34c1af	0.1765201
39	0x3ce0fe5b	0.027465036
40	0x3da66eec	0.081266254
41	0x3e8859f8	0.2663114
42	0x3d7268fd	0.059182156
43	0xbd25919a	-0.04042206
44	0x3e7cd17e	0.2468929
45	0xbf96fc2e	-1.1795709
46	0xbdad9cf0	-0.08477199
47	0x3edd82ac	0.43263757
48	0xbdf271d4	-0.11838117
49	0x3e33d7c4	0.17562777
50	0xbc0f4485	-0.008744364
51	0xbe97fcd3	-0.29685077
52	0xbe436ee7	-0.19085275
53	0xbe6f593e	-0.23373887
54	0xbe678e71	-0.22612931
55	0xbf858570	-1.0431347
56	0xbf20985c	-0.6273248
57	0x3e49bdbd	0.19701286
58	0x3de644fd	0.11243627
59	0x3e2772c5	0.16352375
60	0x3e399838	0.18124473
61	0x3d8d61e3	0.06903436
62	0xbf984426	-1.1895797
63	0xbf4a4039	-0.79004246
64	0xbffd7093	-1.979998
65	0xbec6d965	-0.38837734
66	0x3f53c200	0.82717896
67	0x3eb125d0	0.3459916
68	0xbe80337a	-0.25039274
69	0xbf831d94	-1.0243402
70	0x3f287673	0.6580574
71	0xbc0e3e76	-0.008681884
72	0xbe7ee6b0	-0.24892688
73	0xbf350756	-0.7071432
74	0xbd43d5ff	-0.047811504
75	0x3e2bb0a2	0.16766599
76	0xbd356df9	-0.04429433
77	0xbec95237	-0.39320537
78	0xbf3af877	-0.7303538
79	0x3db38576	0.0876569
80	0x3ede4323	0.43410596
81	0x3d25154b	0.04030351
82	0x3deed4ec	0.116617054
83	0x3dd705e6	0.10499172
84	0xbdf4a9c6	-0.11946444
85	0x3f7242e0	0.94633293
86	0xbd7eb9be	-0.062188856
87	0x3f88d9d3	1.0691475
88	0xbde814fd	-0.11332128
89	0xbea9ea6b	-0.3318666
90	0x3ca8e868	0.020618632
91	0x3f5d0e5c	0.86350036
92	0xbf3d1fab	-0.73876446
93	0xbe3d01f0	-0.1845777
94	0x3f29fd95	0.6640256
95	0xbeacc815	-0.337464
96	0x3ea365ed	0.319137
97	0x3e93302b	0.28747687
98	0xbf61a7c4	-0.88146615
99	0xbf2a5029	-0.66528565
100	0x3f316563	0.6929533
101	0x3ce1d79e	0.027568635
102	0xbfbe08a9	-1.4846393
103	0xbe4f2483	-0.20228772
104	0xbf4cc1b0	-0.79983044
105	0xbb802d4e	-0.0039116507
106	0x3e093563	0.13399272
107	0x3e883fe6	0.2661125
108	0x3f069ce8	0.5258317
109	0xbddd73f0	-0.10813129
110	0x3de24015	0.11047379
111	0x3ee5f0f9	0.4491041
112	0xbd615e62	-0.05502165
113	0xbf377350	-0.7166033
114	0xbf3cc482	-0.7373735
115	0xbed6525f	-0.4185972
116	0x3fc8485f	1.5647086
117	0xbe29918c	-0.16559428
118	0xbf1aa17b	-0.6040265
119	0xbf4bf3a6	-0.79668653
120	0xbe7e7bae	-0.24851868
121	0x3e4a1f6a	0.19738546
122	0x3e602ad8	0.21891344
123	0xbe0f7254	-0.14008456
124	0x3dcbec5a	0.0995719
125	0x3e42f1c0	0.19037533
126	0x3e21a089	0.15783896
127	0x3dad5393	0.08463206
128	0xbd05c804	-0.032661453
129	0xbd5462fd	-0.051852215
130	0x3db9b50b	0.09067734
131	0xbc6dd2ca	-0.014515588
132	0x3d8295b9	0.063762136
133	0xbe17d092	-0.14825657
134	0xbe1ca704	-0.15298086
135	0xbda5f9b2	-0.08104266
136	0x3c59778f	0.013273134
137	0xbc1570d7	-0.009121141
138	0x3dfcefab	0.123504005
139	0xbd67f572	-0.05663056
140	0x3ba3939d	0.004991962
141	0xbc0b0163	-0.008484217
142	0xbdd9a41f	-0.10627007
143	0x3d97daab	0.074147545
144	0xbdf48cb9	-0.11940903
145	0xbd2051ba	-0.03914044
146	0xbd8abda6	-0.06774454
147	0xbdc29f86	-0.09503083
148	0xbdde1c43	-0.10845234
149	0x3dbfccec	0.093652576
150	0x3d278b20	0.040904164
151	0xbd8b2ad5	-0.06795279
152	0x3d118d0f	0.035534915
153	0x3d814e7c	0.06313798
154	0xbdb3e097	-0.087830715
155	0xbdb31ea5	-0.08746079
156	0xbd043202	-0.032274254
157	0x3b12dfac	0.002241115
158	0xbcd3bc14	-0.025846519
159	0xbdc99a0d	-0.09843836
160	0xbe0a2b35	-0.13493045
161	0xbe33f82e	-0.17575142
162	0x3d56bfd7	0.052429046
163	0xbe259b6e	-0.16172573
164	0xbda70a34	-0.08156243
165	0x3a3c40ad	0.00071812683
166	0xbdb00c28	-0.085960686
167	0xbd568375	-0.05237146
168	0xbd92332f	-0.07138669
169	0xbdeb36bc	-0.11485049
170	0xbe0361b4	-0.1283024
171	0xbd1dd228	-0.0385305
172	0xbdb07fb8	-0.086181104
173	0xbbe0a190	-0.0068551973
174	0x3cf7c398	0.030244634
175	0xbdd32813	-0.10310378
176	0xbda510d8	-0.08059853
177	0xbdaec1c7	-0.08533054
178	0x3c5e269a	0.013559008
179	0xbd4eee8f	-0.050520476
180	0xbb3fff78	-0.0029296558
181	0xbd678e50	-0.056532204
182	0xbd759947	-0.05996063
183	0x3c93e562	0.018053714
184	0xbdd3aaa2	-0.1033528
185	0xbdcd9e8d	-0.10040007
186	0xbe0b774a	-0.13619724
187	0xbcf15d15	-0.02946333
188	0xbd29c42f	-0.04144686
189	0xbdfcfc71	-0.12352837
190	0x3dabef84	0.08395293
191	0xbdddc7ee	-0.10829149
192	0xbdd5bbd2	-0.104362145
193	0x3d9436eb	0.07237037
194	0xbd95df1a	-0.07317944
195	0xbd074a54	-0.03302987
196	0xbdb997aa	-0.09062131
197	0x3d66614e	0.05624514
198	0xbd5f1c3b	-0.054470282
199	0xbd9c4738	-0.076307714
200	0x3d6008f9	0.054696057
201	0x3d6d32d9	0.05790982
202	0x3dccd5af	0.100016944
203	0xbde22f23	-0.11044147
204	0xbd8ca6f0	-0.06867778
205	0x3d91f027	0.071258835
206	0xbdcd4893	-0.10023608
207	0x3cf08a98	0.029362962
208	0xbd89a987	-0.06721788
209	0xbe13f853	-0.14450197
210	0x3d6a4b6e	0.05720084
211	0x3cf98970	0.030461043
212	0xbe05feb1	-0.13085438
213	0x3d001213	0.031267237
214	0xbd8eaf4b	-0.06967028
215	0xbd177804	-0.03697969
216	0xbd23a3f7	-0.03995129
217	0xbdf66516	-0.12030999
218	0xbdb94ecc	-0.090482324
219	0x3c15b919	0.009138369
220	0xbe0d578b	-0.13802926
221	0x3dbbe4c1	0.09174491
222	0xbc414300	-0.011795759
223	0xbcc19993	-0.0236328
224	0x3d92a6ef	0.07160746
225	0x3c5c1d47	0.013434715
226	0x3d9eb6a3	0.07749679
227	0xbc930544	-0.017946847
228	0xbdc8994b	-0.09794863
229	0xbde162c1	-0.11005164
230	0xbb2383f0	-0.0024950467
231	0xbceb3bcd	-0.028715039
232	0x3ad64b29	0.0016349304
233	0xbdceec02	-0.10103609
234	0xbde07b02	-0.10960962
235	0xbd9f40d4	-0.07776037
236	0xbba74cff	-0.005105614
237	0xbdee3d2c	-0.11632761
238	0xbdba8eec	-0.091092914
239	0xbd8ee825	-0.06977872
240	0x3cd6c857	0.026218576
241	0xbd007d4e	-0.0313695
242	0xbda8c658	-0.08240956
243	0xbd566a2f	-0.05234736
244	0xbde33ef3	-0.11095991
245	0xbd84ac55	-0.06478182
246	0xbe0a169d	-0.13485189
247	0xbd8af4c5	-0.06784967
248	0x3cb79c3f	0.022413371
249	0xbd6ae514	-0.057347372
250	0xbe2a6fb6	-0.16644177
251	0xbd041ba8	-0.032252938
252	0xbd66c5ea	-0.05634109
253	0xbd6865d2	-0.05673773
254	0xbde98617	-0.11402529
255	0xbcca5560	-0.024698913

fc2.bias f4 [64]
0	0x3f1c383e	0.6102332
1	0xbe02ddfa	-0.1277999
2	0x3f70de01	0.9408875
3	0x3f88b499	1.0680114
4	0x3f457538	0.77131987
5	0x3f6e8cd0	0.9318361
6	0xbf69a98b	-0.9127433
7	0xbf369603	-0.7132265
8	0xbe628dc8	-0.22124398
9	0xbf63c2a9	-0.889689
10	0xbedec25c	-0.4350766
11	0x3f5ff163	0.874777
12	0xbf8001d9	-1.0000564
13	0x3f06c787	0.52648205
14	0x3f9a596c	1.2058539
15	0x3f1897b5	0.59606487
16	0x3f6151b4	0.88015294
17	0xbe3948c3	-0.18094163
18	0x3f8c3d65	1.0956236
19	0x3f0ddf8d	0.55419236
20	0xbf55fa78	-0.8358531
21	0xbd7a520a	-0.061113395
22	0xbf737bf2	-0.95111
23	0x3f5e92e5	0.86942893
24	0x3f098f8e	0.5373467
25	0x3f557831	0.8338652
26	0x3ed83672	0.42229038
27	0xbf470ea7	-0.7775673
28	0xbe7a8e5e	-0.24468371
29	0x3fb365c9	1.4015437
30	0x3f8ecc6c	1.1156135
31	0xbe81c731	-0.25347283
32	0x3ee730b1	0.45154336
33	0x3eacdd66	0.33762664
34	0xbdbf3fc7	-0.093383364
35	0x3f10fec7	0.5663876
36	0xbf2f1dd8	-0.6840491
37	0x3f236e65	0.63840324
38	0xbeb13c43	-0.3461629
39	0x3f41d54a	0.7571608
40	0xbf1e420c	-0.6181953
41	0x3f888891	1.0666677
42	0x3e6115fa	0.2198104
43	0x3f4b2688	0.7935567
44	0x3fb267dd	1.3937947
45	0xbe76bd5f	-0.24095677
46	0x3f94c9ea	1.1624119
47	0x3f4d7d76	0.80269563
48	0x3f9200c7	1.1406487
49	0xbf203546	-0.6258129
50	0x3f98b58b	1.1930403
51	0x3f1532fc	0.5828092
52	0xbe19d329	-0.15021957
53	0x3dea3856	0.114365265
54	0x3f76a1c4	0.96340585
55	0xbec62eed	-0.38707677
56	0xbf690c0a	-0.91033995
57	0x3f30f96c	0.6913059
58	0x3f6d1d92	0.92623246
59	0x3f116980	0.56801605
60	0xbdd53088	-0.10409647
61	0xbe389a62	-0.18027642
62	0x3f48f76f	0.78502554
63	0x3f59e665	0.8511718

fc3.weight f4 [1, 64]
0	0x3d03da3c	0.032190546
1	0x3c4e1761	0.012578816
2	0x3cf25776	0.02958272
3	0x3d3e390e	0.04644113
4	0x3ceda588	0.029009596
5	0x3d26d96a	0.040734686
6	0xbd1e998b	-0.03872065
7	0xbd81dd86	-0.0634108
8	0xbc50e956	-0.012750944
9	0xbd0a26f7	-0.033728566
10	0xbe049199	-0.12946166
11	0x3d03de87	0.03219464
12	0xbde6fafc	-0.1127834
13	0x3c8b49a4	0.017002888
14	0x3e0275d0	0.12740254
15	0x3c7885bf	0.015168606
16	0x3d0358ea	0.032067217
17	0xbd1c7175	-0.03819414
18	0x3d57ced6	0.05268749
19	0x3cea37e6	0.028591108
20	0xbce62bad	-0.028096998
21	0xbda230cd	-0.07919464
22	0xbced81e0	-0.028992593
23	0x3d36aa6a	0.044596113
24	0x3c5d149a	0.013493681
25	0x3d26c74e	0.040717416
26	0x3d2a320a	0.041551627
27	0xbcd20b49	-0.025640147
28	0xbcb06c5d	-0.021536047
29	0x3d9fb041	0.0779729
30	0x3e1955ff	0.14974211
31	0xbcbea43c	-0.023271672
32	0x3d5a1e9f	0.05325186
33	0x3d3be594	0.04587324
34	0x3c3a9e60	0.011390299
35	0x3c12368a	0.008924136
36	0xbd9be53a	-0.07612081
37	0x3c7072db	0.014675821
38	0xbd688af1	-0.05677313
39	0x3d26b749	0.040702138
40	0xbd8b47cd	-0.06800804
41	0x3d8c001e	0.0683596
42	0x3bb2a191	0.005451389
43	0x3cbd721a	0.023125697
44	0x3d2c21a1	0.04202426
45	0x3d261a03	0.04055215
46	0x3d674f62	0.05647219
47	0x3c66fe2d	0.014098686
48	0x3d4d4f7c	0.05012463
49	0xbd9a69f2	-0.07539739
50	0x3d6eb2f6	0.05827614
51	0x3c2c9333	0.010533142
52	0x3d5f432c	0.05450742
53	0x3a405af7	0.00073377736
54	0x3dc068eb	0.093950115
55	0xbd8fe48c	-0.07026014
56	0xbd1db877	-0.038505998
57	0x3c4cb588	0.012494452
58	0x3c89b702	0.016810898
59	0x3ca20b60	0.019780815
60	0x3d555fb5	0.052093226
61	0xbb59d9d7	-0.0033241415
62	0x3d072190	0.032990992
63	0x3c26b05a	0.010173881
